…
sch': 26, 'div': 27, 'exp': 28, 'inv': 29, 'ln': 30, 'mul': 31, 'pow': 32, 'pow2': 33, 'pow3': 34, 'pow4': 35, 'pow5': 36, 'rac': 37, 'sec': 38, 'sech': 39, 'sign': 40, 'sin': 41, 'sinh': 42, 'sqrt': 43, 'sub': 44, 'tan': 45, 'tanh': 46, 'INT+': 47, 'INT-': 48, 'INT': 49, '0': 50, '1': 51, '2': 52, '3': 53, '4': 54, '5': 55, '6': 56, '7': 57, '8': 58, '9': 59}
INFO - 05/06/22 19:06:54 - 0:00:00 - 11 possible leaves.
INFO - 05/06/22 19:06:54 - 0:00:00 - Checking expressions in [… DEBUG - 05/06/22 19:06:54 - 0:00:00 - TransformerModel(
                                        (position_embeddings): Embedding(4096, 8)
                                        (embeddings): Embedding(60, 8, padding_idx=1)
                                        (layer_norm_emb): LayerNorm((8,), eps=1e-12, elementwise_affine=True)
                                        (attentions): ModuleList(
                                          (0): MultiHeadAttention(
                                            (q_lin): Linear(in_features=8, out_features=8, bias=True)
                                            (k_lin): Linear(in_features=8, out_features=8, bias=True)
                                            (v_lin): Linear(in_features=8, out_features=8, bias=True)
                                            (out_lin): Linear(in_features=8, out_features=8, bias=True)
                                          )
                                          (1): MultiHeadAttention(
                                            (q_lin): Linear(in_features=8, out_features=8, bias=True)
                                            (k_lin): Linear(in_features=8, out_features=8, bias=True)
                                            (v_lin): Linear(in_features=8, out_features=8, bias=True)
                                            (out_lin): Linear(in_features=8, out_features=8, bias=True)
                                          )
                                          (2): MultiHeadAttention(
                                            (q_lin): Linear(in_features=8, out_features=8, bias=True)
                                            (k_lin): Linear(in_features=8, out_features=8, bias=True)
                                            (v_lin): Linear(in_features=8, out_features=8, bias=True)
                                            (out_lin): Linear(in_features=8, out_features=8, bias=True)
                                          )
                                          (3): MultiHeadAttention(
                                            (q_lin): Linear(in_features=8, out_features=8, bias=True)
                                            (k_lin): Linear(in_features=8, out_features=8, bias=True)
                                            (v_lin): Linear(in_features=8, out_features=8, bias=True)
                                            (out_lin): Linear(in_features=8, out_features=8, bias=True)
                                          )
                                          (4): MultiHeadAttention(
                                            (q_lin): Linear(in_features=8, out_features=8, bias=True)
                                            (k_lin): Linear(in_features=8, out_features=8, bias=True)
                                            (v_lin): Linear(in_features=8, out_features=8, bias=True)
                                            (out_lin): Linear(in_features=8, out_features=8, bias=True)
                                          )
                                          (5): MultiHeadAttention(
                                            (q_lin): Linear(in_features=8, out_features=8, bias=True)
                                            (k_lin): Linear(in_features=8, out_features=8, bias=True)
                                            (v_lin): Linear(in_features=8, out_features=8, bias=True)
                                            (out_lin): Linear(in_features=8, out_features=8, bias=True)
                                          )
                                        )
                                        (layer_norm1): ModuleList(
                                          (0): LayerNorm((8,), eps=1e-12, elementwise_affine=True)
                                          (1): LayerNorm((8,), eps=1e-12, elementwise_affine=True)
                                          (2): LayerNorm((8,), eps=1e-12, elementwise_affine=True)
                                          (3): LayerNorm((8,), eps=1e-12, elementwise_affine=True)
                                          (4): LayerNorm((8,), eps=1e-12, elementwise_affine=True)
                                          (5): LayerNorm((8,), eps=1e-12, elementwise_affine=True)
                                        )
                                        (ffns): ModuleList(
                                          (0): TransformerFFN(
                                            (lin1): Linear(in_features=8, out_features=32, bias=True)
                                            (lin2): Linear(in_features=32, out_features=8, bias=True)
                                          )
                                          (1): TransformerFFN(
                                            (lin1): Linear(in_features=8, out_features=32, bias=True)
                                            (lin2): Linear(in_features=32, out_features=8, bias=True)
                                          )
                                          (2): TransformerFFN(
                                            (lin1): Linear(in_features=8, out_features=32, bias=True)
                                            (lin2): Linear(in_features=32, out_features=8, bias=True)
                                          )
                                          (3): TransformerFFN(
                                            (lin1): Linear(in_features=8, out_features=32, bias=True)
                                            (lin2): Linear(in_features=32, out_features=8, bias=True)
                                          )
                                          (4): TransformerFFN(
                                            (lin1): Linear(in_features=8, out_features=32, bias=True)
                                            (lin2): Linear(in_features=32, out_features=8, bias=True)
                                          )
                                          (5): TransformerFFN(
                                            (lin1): Linear(in_features=8, out_features=32, bias=True)
                                            (lin2): Linear(in_features=32, out_features=8, bias=True)
                                          )
                                        )
                                        (layer_norm2): ModuleList(
                                          (0): LayerNorm((8,), eps=1e-12, elementwise_affine=True)
                                          (1): LayerNorm((8,), eps=1e-12, elementwise_affine=True)
                                          (2): LayerNorm((8,), eps=1e-12, elementwise_affine=True)
                                          (3): LayerNorm((8,), eps=1e-12, elementwise_affine=True)
                                          (4): LayerNorm((8,), eps=1e-12, elementwise_affine=True)
                                          (5): LayerNorm((8,), eps=1e-12, elementwise_affine=True)
                                        )
                                      ): TransformerModel(
                                        (position_embeddings): Embedding(4096, 8)
                                        (embeddings): Embedding(60, 8, padding_idx=1)
                                        (layer_norm_emb): LayerNorm((8,), eps=1e-12, elementwise_affine=True)
                                        (attentions): ModuleList(
                                          (0): MultiHeadAttention(
                                            (q_lin): Linear(in_features=8, out_features=8, bias=True)
                                            (k_lin): Linear(in_features=8, out_features=8, bias=True)
                                            (v_lin): Linear(in_features=8, out_features=8, bias=True)
                                            (out_lin): Linear(in_features=8, out_features=8, bias=True)
                                          )
                                          (1): MultiHeadAttention(
                                            (q_lin): Linear(in_features=8, out_features=8, bias=True)
                                            (k_lin): Linear(in_features=8, out_features=8, bias=True)
                                            (v_lin): Linear(in_features=8, out_features=8, bias=True)
                                            (out_lin): Linear(in_features=8, out_features=8, bias=True)
                                          )
                                          (2): MultiHeadAttention(
                                            (q_lin): Linear(in_features=8, out_features=8, bias=True)
                                            (k_lin): Linear(in_features=8, out_features=8, bias=True)
                                            (v_lin): Linear(in_features=8, out_features=8, bias=True)
                                            (out_lin): Linear(in_features=8, out_features=8, bias=True)
                                          )
                                          (3): MultiHeadAttention(
                                            (q_lin): Linear(in_features=8, out_features=8, bias=True)
                                            (k_lin): Linear(in_features=8, out_features=8, bias=True)
                                            (v_lin): Linear(in_features=8, out_features=8, bias=True)
                                            (out_lin): Linear(in_features=8, out_features=8, bias=True)
                                          )
                                          (4): MultiHeadAttention(
                                            (q_lin): Linear(in_features=8, out_features=8, bias=True)
                                            (k_lin): Linear(in_features=8, out_features=8, bias=True)
                                            (v_lin): Linear(in_features=8, out_features=8, bias=True)
                                            (out_lin): Linear(in_features=8, out_features=8, bias=True)
                                          )
                                          (5): MultiHeadAttention(
                                            (q_lin): Linear(in_features=8, out_features=8, bias=True)
                                            (k_lin): Linear(in_features=8, out_features=8, bias=True)
                                            (v_lin): Linear(in_features=8, out_features=8, bias=True)
                                            (out_lin): Linear(in_features=8, out_features=8, bias=True)
                                          )
                                        )
                                        (layer_norm1): ModuleList(
                                          (0): LayerNorm((8,), eps=1e-12, elementwise_affine=True)
                                          (1): LayerNorm((8,), eps=1e-12, elementwise_affine=True)
                                          (2): LayerNorm((8,), eps=1e-12, elementwise_affine=True)
                                          (3): LayerNorm((8,), eps=1e-12, elementwise_affine=True)
                                          (4): LayerNorm((8,), eps=1e-12, elementwise_affine=True)
                                          (5): LayerNorm((8,), eps=1e-12, elementwise_affine=True)
                                        )
                                        (ffns): ModuleList(
                                          (0): TransformerFFN(
                                            (lin1): Linear(in_features=8, out_features=32, bias=True)
                                            (lin2): Linear(in_features=32, out_features=8, bias=True)
                                          )
                                          (1): TransformerFFN(
                                            (lin1): Linear(in_features=8, out_features=32, bias=True)
                                            (lin2): Linear(in_features=32, out_features=8, bias=True)
                                          )
                                          (2): TransformerFFN(
                                            (lin1): Linear(in_features=8, out_features=32, bias=True)
                                            (lin2): Linear(in_features=32, out_features=8, bias=True)
                                          )
                                          (3): TransformerFFN(
                                            (lin1): Linear(in_features=8, out_features=32, bias=True)
                                            (lin2): Linear(in_features=32, out_features=8, bias=True)
                                          )
                                          (4): TransformerFFN(
                                            (lin1): Linear(in_features=8, out_features=32, bias=True)
                                            (lin2): Linear(in_features=32, out_features=8, bias=True)
                                          )
                                          (5): TransformerFFN(
                                            (lin1): Linear(in_features=8, out_features=32, bias=True)
                                            (lin2): Linear(in_features=32, out_features=8, bias=True)
                                          )
                                        )
                                        (layer_norm2): ModuleList(
                                          (0): LayerNorm((8,), eps=1e-12, elementwise_affine=True)
                                          (1): LayerNorm((8,), eps=1e-12, elementwise_affine=True)
                                          (2): LayerNorm((8,), eps=1e-12, elementwise_affine=True)
                                          (3): LayerNorm((8,), eps=1e-12, elementwise_affine=True)
                                          (4): LayerNorm((8,), eps=1e-12, elementwise_affine=True)
                                          (5): LayerNorm((8,), eps=1e-12, elementwise_affine=True)
                                        )
                                      )
DEBUG - 05/06/22 19:06:54 - 0:00:00 - TransformerModel(
                                        (position_embeddings): Embedding(4096, 8)
                                        (embeddings): Embedding(60, 8, padding_idx=1)
                                        (layer_norm_emb): LayerNorm((8,), eps=1e-12, elementwise_affine=True)
                                        (attentions): ModuleList(
                                          (0): MultiHeadAttention(
                                            (q_lin): Linear(in_features=8, out_features=8, bias=True)
                                            (k_lin): Linear(in_features=8, out_features=8, bias=True)
                                            (v_lin): Linear(in_features=8, out_features=8, bias=True)
                                            (out_lin): Linear(in_features=8, out_features=8, bias=True)
                                          )
                                          (1): MultiHeadAttention(
                                            (q_lin): Linear(in_features=8, out_features=8, bias=True)
                                            (k_lin): Linear(in_features=8, out_features=8, bias=True)
                                            (v_lin): Linear(in_features=8, out_features=8, bias=True)
                                            (out_lin): Linear(in_features=8, out_features=8, bias=True)
                                          )
                                          (2): MultiHeadAttention(
                                            (q_lin): Linear(in_features=8, out_features=8, bias=True)
                                            (k_lin): Linear(in_features=8, out_features=8, bias=True)
                                            (v_lin): Linear(in_features=8, out_features=8, bias=True)
                                            (out_lin): Linear(in_features=8, out_features=8, bias=True)
                                          )
                                          (3): MultiHeadAttention(
                                            (q_lin): Linear(in_features=8, out_features=8, bias=True)
                                            (k_lin): Linear(in_features=8, out_features=8, bias=True)
                                            (v_lin): Linear(in_features=8, out_features=8, bias=True)
                                            (out_lin): Linear(in_features=8, out_features=8, bias=True)
                                          )
                                          (4): MultiHeadAttention(
                                            (q_lin): Linear(in_features=8, out_features=8, bias=True)
                                            (k_lin): Linear(in_features=8, out_features=8, bias=True)
                                            (v_lin): Linear(in_features=8, out_features=8, bias=True)
                                            (out_lin): Linear(in_features=8, out_features=8, bias=True)
                                          )
                                          (5): MultiHeadAttention(
                                            (q_lin): Linear(in_features=8, out_features=8, bias=True)
                                            (k_lin): Linear(in_features=8, out_features=8, bias=True)
                                            (v_lin): Linear(in_features=8, out_features=8, bias=True)
                                            (out_lin): Linear(in_features=8, out_features=8, bias=True)
                                          )
                                        )
                                        (layer_norm1): ModuleList(
                                          (0): LayerNorm((8,), eps=1e-12, elementwise_affine=True)
                                          (1): LayerNorm((8,), eps=1e-12, elementwise_affine=True)
                                          (2): LayerNorm((8,), eps=1e-12, elementwise_affine=True)
                                          (3): LayerNorm((8,), eps=1e-12, elementwise_affine=True)
                                          (4): LayerNorm((8,), eps=1e-12, elementwise_affine=True)
                                          (5): LayerNorm((8,), eps=1e-12, elementwise_affine=True)
                                        )
                                        (ffns): ModuleList(
                                          (0): TransformerFFN(
                                            (lin1): Linear(in_features=8, out_features=32, bias=True)
                                            (lin2): Linear(in_features=32, out_features=8, bias=True)
                                          )
                                          (1): TransformerFFN(
                                            (lin1): Linear(in_features=8, out_features=32, bias=True)
                                            (lin2): Linear(in_features=32, out_features=8, bias=True)
                                          )
                                          (2): TransformerFFN(
                                            (lin1): Linear(in_features=8, out_features=32, bias=True)
                                            (lin2): Linear(in_features=32, out_features=8, bias=True)
                                          )
                                          (3): TransformerFFN(
                                            (lin1): Linear(in_features=8, out_features=32, bias=True)
                                            (lin2): Linear(in_features=32, out_features=8, bias=True)
                                          )
                                          (4): TransformerFFN(
                                            (lin1): Linear(in_features=8, out_features=32, bias=True)
                                            (lin2): Linear(in_features=32, out_features=8, bias=True)
                                          )
                                          (5): TransformerFFN(
                                            (lin1): Linear(in_features=8, out_features=32, bias=True)
                                            (lin2): Linear(in_features=32, out_features=8, bias=True)
                                          )
                                        )
                                        (layer_norm2): ModuleList(
                                          (0): LayerNorm((8,), eps=1e-12, elementwise_affine=True)
                                          (1): LayerNorm((8,), eps=1e-12, elementwise_affine=True)
                                          (2): LayerNorm((8,), eps=1e-12, elementwise_affine=True)
                                          (3): LayerNorm((8,), eps=1e-12, elementwise_affine=True)
                                          (4): LayerNorm((8,), eps=1e-12, elementwise_affine=True)
                                          (5): LayerNorm((8,), eps=1e-12, elementwise_affine=True)
                                        )
                                        (layer_norm15): ModuleList(
                                          (0): LayerNorm((8,), eps=1e-12, elementwise_affine=True)
                                          (1): LayerNorm((8,), eps=1e-12, elementwise_affine=True)
                                          (2): LayerNorm((8,), eps=1e-12, elementwise_affine=True)
                                          (3): LayerNorm((8,), eps=1e-12, elementwise_affine=True)
                                          (4): LayerNorm((8,), eps=1e-12, elementwise_affine=True)
                                          (5): LayerNorm((8,), eps=1e-12, elementwise_affine=True)
                                        )
                                        (encoder_attn): ModuleList(
                                          (0): MultiHeadAttention(
                                            (q_lin): Linear(in_features=8, out_features=8, bias=True)
                                            (k_lin): Linear(in_features=8, out_features=8, bias=True)
                                            (v_lin): Linear(in_features=8, out_features=8, bias=True)
                                            (out_lin): Linear(in_features=8, out_features=8, bias=True)
                                          )
                                          (1): MultiHeadAttention(
                                            (q_lin): Linear(in_features=8, out_features=8, bias=True)
                                            (k_lin): Linear(in_features=8, out_features=8, bias=True)
                                            (v_lin): Linear(in_features=8, out_features=8, bias=True)
                                            (out_lin): Linear(in_features=8, out_features=8, bias=True)
                                          )
                                          (2): MultiHeadAttention(
                                            (q_lin): Linear(in_features=8, out_features=8, bias=True)
                                            (k_lin): Linear(in_features=8, out_features=8, bias=True)
                                            (v_lin): Linear(in_features=8, out_features=8, bias=True)
                                            (out_lin): Linear(in_features=8, out_features=8, bias=True)
                                          )
                                          (3): MultiHeadAttention(
                                            (q_lin): Linear(in_features=8, out_features=8, bias=True)
                                            (k_lin): Linear(in_features=8, out_features=8, bias=True)
                                            (v_lin): Linear(in_features=8, out_features=8, bias=True)
                                            (out_lin): Linear(in_features=8, out_features=8, bias=True)
                                          )
                                          (4): MultiHeadAttention(
                                            (q_lin): Linear(in_features=8, out_features=8, bias=True)
                                            (k_lin): Linear(in_features=8, out_features=8, bias=True)
                                            (v_lin): Linear(in_features=8, out_features=8, bias=True)
                                            (out_lin): Linear(in_features=8, out_features=8, bias=True)
                                          )
                                          (5): MultiHeadAttention(
                                            (q_lin): Linear(in_features=8, out_features=8, bias=True)
                                            (k_lin): Linear(in_features=8, out_features=8, bias=True)
                                            (v_lin): Linear(in_features=8, out_features=8, bias=True)
                                            (out_lin): Linear(in_features=8, out_features=8, bias=True)
                                          )
                                        )
                                        (proj): Linear(in_features=8, out_features=60, bias=True)
                                      ): TransformerModel(
                                        (position_embeddings): Embedding(4096, 8)
                                        (embeddings): Embedding(60, 8, padding_idx=1)
                                        (layer_norm_emb): LayerNorm((8,), eps=1e-12, elementwise_affine=True)
                                        (attentions): ModuleList(
                                          (0): MultiHeadAttention(
                                            (q_lin): Linear(in_features=8, out_features=8, bias=True)
                                            (k_lin): Linear(in_features=8, out_features=8, bias=True)
                                            (v_lin): Linear(in_features=8, out_features=8, bias=True)
                                            (out_lin): Linear(in_features=8, out_features=8, bias=True)
                                          )
                                          (1): MultiHeadAttention(
                                            (q_lin): Linear(in_features=8, out_features=8, bias=True)
                                            (k_lin): Linear(in_features=8, out_features=8, bias=True)
                                            (v_lin): Linear(in_features=8, out_features=8, bias=True)
                                            (out_lin): Linear(in_features=8, out_features=8, bias=True)
                                          )
                                          (2): MultiHeadAttention(
                                            (q_lin): Linear(in_features=8, out_features=8, bias=True)
                                            (k_lin): Linear(in_features=8, out_features=8, bias=True)
                                            (v_lin): Linear(in_features=8, out_features=8, bias=True)
                                            (out_lin): Linear(in_features=8, out_features=8, bias=True)
                                          )
                                          (3): MultiHeadAttention(
                                            (q_lin): Linear(in_features=8, out_features=8, bias=True)
                                            (k_lin): Linear(in_features=8, out_features=8, bias=True)
                                            (v_lin): Linear(in_features=8, out_features=8, bias=True)
                                            (out_lin): Linear(in_features=8, out_features=8, bias=True)
                                          )
                                          (4): MultiHeadAttention(
                                            (q_lin): Linear(in_features=8, out_features=8, bias=True)
                                            (k_lin): Linear(in_features=8, out_features=8, bias=True)
                                            (v_lin): Linear(in_features=8, out_features=8, bias=True)
                                            (out_lin): Linear(in_features=8, out_features=8, bias=True)
                                          )
                                          (5): MultiHeadAttention(
                                            (q_lin): Linear(in_features=8, out_features=8, bias=True)
                                            (k_lin): Linear(in_features=8, out_features=8, bias=True)
                                            (v_lin): Linear(in_features=8, out_features=8, bias=True)
                                            (out_lin): Linear(in_features=8, out_features=8, bias=True)
                                          )
                                        )
                                        (layer_norm1): ModuleList(
                                          (0): LayerNorm((8,), eps=1e-12, elementwise_affine=True)
                                          (1): LayerNorm((8,), eps=1e-12, elementwise_affine=True)
                                          (2): LayerNorm((8,), eps=1e-12, elementwise_affine=True)
                                          (3): LayerNorm((8,), eps=1e-12, elementwise_affine=True)
                                          (4): LayerNorm((8,), eps=1e-12, elementwise_affine=True)
                                          (5): LayerNorm((8,), eps=1e-12, elementwise_affine=True)
                                        )
                                        (ffns): ModuleList(
                                          (0): TransformerFFN(
                                            (lin1): Linear(in_features=8, out_features=32, bias=True)
                                            (lin2): Linear(in_features=32, out_features=8, bias=True)
                                          )
                                          (1): TransformerFFN(
                                            (lin1): Linear(in_features=8, out_features=32, bias=True)
                                            (lin2): Linear(in_features=32, out_features=8, bias=True)
                                          )
                                          (2): TransformerFFN(
                                            (lin1): Linear(in_features=8, out_features=32, bias=True)
                                            (lin2): Linear(in_features=32, out_features=8, bias=True)
                                          )
                                          (3): TransformerFFN(
                                            (lin1): Linear(in_features=8, out_features=32, bias=True)
                                            (lin2): Linear(in_features=32, out_features=8, bias=True)
                                          )
                                          (4): TransformerFFN(
                                            (lin1): Linear(in_features=8, out_features=32, bias=True)
                                            (lin2): Linear(in_features=32, out_features=8, bias=True)
                                          )
                                          (5): TransformerFFN(
                                            (lin1): Linear(in_features=8, out_features=32, bias=True)
                                            (lin2): Linear(in_features=32, out_features=8, bias=True)
                                          )
                                        )
                                        (layer_norm2): ModuleList(
                                          (0): LayerNorm((8,), eps=1e-12, elementwise_affine=True)
                                          (1): LayerNorm((8,), eps=1e-12, elementwise_affine=True)
                                          (2): LayerNorm((8,), eps=1e-12, elementwise_affine=True)
                                          (3): LayerNorm((8,), eps=1e-12, elementwise_affine=True)
                                          (4): LayerNorm((8,), eps=1e-12, elementwise_affine=True)
                                          (5): LayerNorm((8,), eps=1e-12, elementwise_affine=True)
                                        )
                                        (layer_norm15): ModuleList(
                                          (0): LayerNorm((8,), eps=1e-12, elementwise_affine=True)
                                          (1): LayerNorm((8,), eps=1e-12, elementwise_affine=True)
                                          (2): LayerNorm((8,), eps=1e-12, elementwise_affine=True)
                                          (3): LayerNorm((8,), eps=1e-12, elementwise_affine=True)
                                          (4): LayerNorm((8,), eps=1e-12, elementwise_affine=True)
                                          (5): LayerNorm((8,), eps=1e-12, elementwise_affine=True)
                                        )
                                        (encoder_attn): ModuleList(
                                          (0): MultiHeadAttention(
                                            (q_lin): Linear(in_features=8, out_features=8, bias=True)
                                            (k_lin): Linear(in_features=8, out_features=8, bias=True)
                                            (v_lin): Linear(in_features=8, out_features=8, bias=True)
                                            (out_lin): Linear(in_features=8, out_features=8, bias=True)
                                          )
                                          (1): MultiHeadAttention(
                                            (q_lin): Linear(in_features=8, out_features=8, bias=True)
                                            (k_lin): Linear(in_features=8, out_features=8, bias=True)
                                            (v_lin): Linear(in_features=8, out_features=8, bias=True)
                                            (out_lin): Linear(in_features=8, out_features=8, bias=True)
                                          )
                                          (2): MultiHeadAttention(
                                            (q_lin): Linear(in_features=8, out_features=8, bias=True)
                                            (k_lin): Linear(in_features=8, out_features=8, bias=True)
                                            (v_lin): Linear(in_features=8, out_features=8, bias=True)
                                            (out_lin): Linear(in_features=8, out_features=8, bias=True)
                                          )
                                          (3): MultiHeadAttention(
                                            (q_lin): Linear(in_features=8, out_features=8, bias=True)
                                            (k_lin): Linear(in_features=8, out_features=8, bias=True)
                                            (v_lin): Linear(in_features=8, out_features=8, bias=True)
                                            (out_lin): Linear(in_features=8, out_features=8, bias=True)
                                          )
                                          (4): MultiHeadAttention(
                                            (q_lin): Linear(in_features=8, out_features=8, bias=True)
                                            (k_lin): Linear(in_features=8, out_features=8, bias=True)
                                            (v_lin): Linear(in_features=8, out_features=8, bias=True)
                                            (out_lin): Linear(in_features=8, out_features=8, bias=True)
                                          )
                                          (5): MultiHeadAttention(
                                            (q_lin): Linear(in_features=8, out_features=8, bias=True)
                                            (k_lin): Linear(in_features=8, out_features=8, bias=True)
                                            (v_lin): Linear(in_features=8, out_features=8, bias=True)
                                            (out_lin): Linear(in_features=8, out_features=8, bias=True)
                                          )
                                        )
                                        (proj): Linear(in_features=8, out_features=60, bias=True)
                                      )
INFO - 05/06/22 19:06:54 - 0:00:00 - Number of parameters (encoder): 38496
INFO - 05/06/22 19:06:54 - 0:00:00 - Number of parameters (decoder): 40380
INFO - 05/06/22 19:06:54 - 0:00:00 - Found 261 parameters in model.
INFO - 05/06/22 19:06:54 - 0:00:00 - Optimizers: model
INFO - 05/06/22 19:06:54 - 0:00:00 - Creating train iterator  ...
…
